{"class_name": "Model", "config": {"name": "model", "layers": [{"name": "left_eye_input", "class_name": "InputLayer", "config": {"batch_input_shape": [null, 36, 60, 1], "dtype": "float32", "sparse": false, "name": "left_eye_input"}, "inbound_nodes": []}, {"name": "right_eye_input", "class_name": "InputLayer", "config": {"batch_input_shape": [null, 36, 60, 1], "dtype": "float32", "sparse": false, "name": "right_eye_input"}, "inbound_nodes": []}, {"name": "Left_Layer_1", "class_name": "Conv2D", "config": {"name": "Left_Layer_1", "trainable": true, "dtype": "float32", "filters": 10, "kernel_size": [3, 3], "strides": [1, 1], "padding": "same", "data_format": "channels_last", "dilation_rate": [1, 1], "activation": "linear", "use_bias": false, "kernel_initializer": {"class_name": "VarianceScaling", "config": {"scale": 2.0, "mode": "fan_in", "distribution": "uniform", "seed": null, "dtype": "float32"}}, "bias_initializer": {"class_name": "Zeros", "config": {"dtype": "float32"}}, "kernel_regularizer": null, "bias_regularizer": null, "activity_regularizer": null, "kernel_constraint": null, "bias_constraint": null}, "inbound_nodes": [[["left_eye_input", 0, 0, {}]]]}, {"name": "Right_Layer_1", "class_name": "Conv2D", "config": {"name": "Right_Layer_1", "trainable": true, "dtype": "float32", "filters": 10, "kernel_size": [3, 3], "strides": [1, 1], "padding": "same", "data_format": "channels_last", "dilation_rate": [1, 1], "activation": "linear", "use_bias": false, "kernel_initializer": {"class_name": "VarianceScaling", "config": {"scale": 2.0, "mode": "fan_in", "distribution": "uniform", "seed": null, "dtype": "float32"}}, "bias_initializer": {"class_name": "Zeros", "config": {"dtype": "float32"}}, "kernel_regularizer": null, "bias_regularizer": null, "activity_regularizer": null, "kernel_constraint": null, "bias_constraint": null}, "inbound_nodes": [[["right_eye_input", 0, 0, {}]]]}, {"name": "Left_DS_2", "class_name": "DepthwiseConv2D", "config": {"name": "Left_DS_2", "trainable": true, "dtype": "float32", "kernel_size": [3, 3], "strides": [2, 2], "padding": "same", "data_format": "channels_last", "dilation_rate": [1, 1], "activation": "linear", "use_bias": false, "bias_initializer": {"class_name": "Zeros", "config": {"dtype": "float32"}}, "bias_regularizer": null, "activity_regularizer": null, "bias_constraint": null, "depth_multiplier": 1, "depthwise_initializer": {"class_name": "GlorotUniform", "config": {"seed": null, "dtype": "float32"}}, "depthwise_regularizer": null, "depthwise_constraint": null}, "inbound_nodes": [[["Left_Layer_1", 0, 0, {}]]]}, {"name": "Right_DS_2", "class_name": "DepthwiseConv2D", "config": {"name": "Right_DS_2", "trainable": true, "dtype": "float32", "kernel_size": [3, 3], "strides": [2, 2], "padding": "same", "data_format": "channels_last", "dilation_rate": [1, 1], "activation": "linear", "use_bias": false, "bias_initializer": {"class_name": "Zeros", "config": {"dtype": "float32"}}, "bias_regularizer": null, "activity_regularizer": null, "bias_constraint": null, "depth_multiplier": 1, "depthwise_initializer": {"class_name": "GlorotUniform", "config": {"seed": null, "dtype": "float32"}}, "depthwise_regularizer": null, "depthwise_constraint": null}, "inbound_nodes": [[["Right_Layer_1", 0, 0, {}]]]}, {"name": "Left_DS_BN_2", "class_name": "BatchNormalization", "config": {"name": "Left_DS_BN_2", "trainable": true, "dtype": "float32", "axis": [3], "momentum": 0.99, "epsilon": 0.001, "center": true, "scale": true, "beta_initializer": {"class_name": "Zeros", "config": {"dtype": "float32"}}, "gamma_initializer": {"class_name": "Ones", "config": {"dtype": "float32"}}, "moving_mean_initializer": {"class_name": "Zeros", "config": {"dtype": "float32"}}, "moving_variance_initializer": {"class_name": "Ones", "config": {"dtype": "float32"}}, "beta_regularizer": null, "gamma_regularizer": null, "beta_constraint": null, "gamma_constraint": null}, "inbound_nodes": [[["Left_DS_2", 0, 0, {}]]]}, {"name": "Right_DS_BN_2", "class_name": "BatchNormalization", "config": {"name": "Right_DS_BN_2", "trainable": true, "dtype": "float32", "axis": [3], "momentum": 0.99, "epsilon": 0.001, "center": true, "scale": true, "beta_initializer": {"class_name": "Zeros", "config": {"dtype": "float32"}}, "gamma_initializer": {"class_name": "Ones", "config": {"dtype": "float32"}}, "moving_mean_initializer": {"class_name": "Zeros", "config": {"dtype": "float32"}}, "moving_variance_initializer": {"class_name": "Ones", "config": {"dtype": "float32"}}, "beta_regularizer": null, "gamma_regularizer": null, "beta_constraint": null, "gamma_constraint": null}, "inbound_nodes": [[["Right_DS_2", 0, 0, {}]]]}, {"name": "Left_DS_act_2", "class_name": "Activation", "config": {"name": "Left_DS_act_2", "trainable": true, "dtype": "float32", "activation": "elu"}, "inbound_nodes": [[["Left_DS_BN_2", 0, 0, {}]]]}, {"name": "Right_DS_act_2", "class_name": "Activation", "config": {"name": "Right_DS_act_2", "trainable": true, "dtype": "float32", "activation": "elu"}, "inbound_nodes": [[["Right_DS_BN_2", 0, 0, {}]]]}, {"name": "Left_PW_2", "class_name": "Conv2D", "config": {"name": "Left_PW_2", "trainable": true, "dtype": "float32", "filters": 20, "kernel_size": [1, 1], "strides": [1, 1], "padding": "same", "data_format": "channels_last", "dilation_rate": [1, 1], "activation": "linear", "use_bias": false, "kernel_initializer": {"class_name": "VarianceScaling", "config": {"scale": 2.0, "mode": "fan_in", "distribution": "uniform", "seed": null, "dtype": "float32"}}, "bias_initializer": {"class_name": "Zeros", "config": {"dtype": "float32"}}, "kernel_regularizer": null, "bias_regularizer": null, "activity_regularizer": null, "kernel_constraint": null, "bias_constraint": null}, "inbound_nodes": [[["Left_DS_act_2", 0, 0, {}]]]}, {"name": "Right_PW_2", "class_name": "Conv2D", "config": {"name": "Right_PW_2", "trainable": true, "dtype": "float32", "filters": 20, "kernel_size": [1, 1], "strides": [1, 1], "padding": "same", "data_format": "channels_last", "dilation_rate": [1, 1], "activation": "linear", "use_bias": false, "kernel_initializer": {"class_name": "VarianceScaling", "config": {"scale": 2.0, "mode": "fan_in", "distribution": "uniform", "seed": null, "dtype": "float32"}}, "bias_initializer": {"class_name": "Zeros", "config": {"dtype": "float32"}}, "kernel_regularizer": null, "bias_regularizer": null, "activity_regularizer": null, "kernel_constraint": null, "bias_constraint": null}, "inbound_nodes": [[["Right_DS_act_2", 0, 0, {}]]]}, {"name": "Left_PW_BN_2", "class_name": "BatchNormalization", "config": {"name": "Left_PW_BN_2", "trainable": true, "dtype": "float32", "axis": [3], "momentum": 0.99, "epsilon": 0.001, "center": true, "scale": true, "beta_initializer": {"class_name": "Zeros", "config": {"dtype": "float32"}}, "gamma_initializer": {"class_name": "Ones", "config": {"dtype": "float32"}}, "moving_mean_initializer": {"class_name": "Zeros", "config": {"dtype": "float32"}}, "moving_variance_initializer": {"class_name": "Ones", "config": {"dtype": "float32"}}, "beta_regularizer": null, "gamma_regularizer": null, "beta_constraint": null, "gamma_constraint": null}, "inbound_nodes": [[["Left_PW_2", 0, 0, {}]]]}, {"name": "Right_PW_BN_2", "class_name": "BatchNormalization", "config": {"name": "Right_PW_BN_2", "trainable": true, "dtype": "float32", "axis": [3], "momentum": 0.99, "epsilon": 0.001, "center": true, "scale": true, "beta_initializer": {"class_name": "Zeros", "config": {"dtype": "float32"}}, "gamma_initializer": {"class_name": "Ones", "config": {"dtype": "float32"}}, "moving_mean_initializer": {"class_name": "Zeros", "config": {"dtype": "float32"}}, "moving_variance_initializer": {"class_name": "Ones", "config": {"dtype": "float32"}}, "beta_regularizer": null, "gamma_regularizer": null, "beta_constraint": null, "gamma_constraint": null}, "inbound_nodes": [[["Right_PW_2", 0, 0, {}]]]}, {"name": "Left_PW_act_2", "class_name": "Activation", "config": {"name": "Left_PW_act_2", "trainable": true, "dtype": "float32", "activation": "elu"}, "inbound_nodes": [[["Left_PW_BN_2", 0, 0, {}]]]}, {"name": "Right_PW_act_2", "class_name": "Activation", "config": {"name": "Right_PW_act_2", "trainable": true, "dtype": "float32", "activation": "elu"}, "inbound_nodes": [[["Right_PW_BN_2", 0, 0, {}]]]}, {"name": "Left_DS_3", "class_name": "DepthwiseConv2D", "config": {"name": "Left_DS_3", "trainable": true, "dtype": "float32", "kernel_size": [3, 3], "strides": [1, 1], "padding": "same", "data_format": "channels_last", "dilation_rate": [1, 1], "activation": "linear", "use_bias": false, "bias_initializer": {"class_name": "Zeros", "config": {"dtype": "float32"}}, "bias_regularizer": null, "activity_regularizer": null, "bias_constraint": null, "depth_multiplier": 1, "depthwise_initializer": {"class_name": "GlorotUniform", "config": {"seed": null, "dtype": "float32"}}, "depthwise_regularizer": null, "depthwise_constraint": null}, "inbound_nodes": [[["Left_PW_act_2", 0, 0, {}]]]}, {"name": "Right_DS_3", "class_name": "DepthwiseConv2D", "config": {"name": "Right_DS_3", "trainable": true, "dtype": "float32", "kernel_size": [3, 3], "strides": [1, 1], "padding": "same", "data_format": "channels_last", "dilation_rate": [1, 1], "activation": "linear", "use_bias": false, "bias_initializer": {"class_name": "Zeros", "config": {"dtype": "float32"}}, "bias_regularizer": null, "activity_regularizer": null, "bias_constraint": null, "depth_multiplier": 1, "depthwise_initializer": {"class_name": "GlorotUniform", "config": {"seed": null, "dtype": "float32"}}, "depthwise_regularizer": null, "depthwise_constraint": null}, "inbound_nodes": [[["Right_PW_act_2", 0, 0, {}]]]}, {"name": "Left_DS_BN_3", "class_name": "BatchNormalization", "config": {"name": "Left_DS_BN_3", "trainable": true, "dtype": "float32", "axis": [3], "momentum": 0.99, "epsilon": 0.001, "center": true, "scale": true, "beta_initializer": {"class_name": "Zeros", "config": {"dtype": "float32"}}, "gamma_initializer": {"class_name": "Ones", "config": {"dtype": "float32"}}, "moving_mean_initializer": {"class_name": "Zeros", "config": {"dtype": "float32"}}, "moving_variance_initializer": {"class_name": "Ones", "config": {"dtype": "float32"}}, "beta_regularizer": null, "gamma_regularizer": null, "beta_constraint": null, "gamma_constraint": null}, "inbound_nodes": [[["Left_DS_3", 0, 0, {}]]]}, {"name": "Right_DS_BN_3", "class_name": "BatchNormalization", "config": {"name": "Right_DS_BN_3", "trainable": true, "dtype": "float32", "axis": [3], "momentum": 0.99, "epsilon": 0.001, "center": true, "scale": true, "beta_initializer": {"class_name": "Zeros", "config": {"dtype": "float32"}}, "gamma_initializer": {"class_name": "Ones", "config": {"dtype": "float32"}}, "moving_mean_initializer": {"class_name": "Zeros", "config": {"dtype": "float32"}}, "moving_variance_initializer": {"class_name": "Ones", "config": {"dtype": "float32"}}, "beta_regularizer": null, "gamma_regularizer": null, "beta_constraint": null, "gamma_constraint": null}, "inbound_nodes": [[["Right_DS_3", 0, 0, {}]]]}, {"name": "Left_DS_act_3", "class_name": "Activation", "config": {"name": "Left_DS_act_3", "trainable": true, "dtype": "float32", "activation": "elu"}, "inbound_nodes": [[["Left_DS_BN_3", 0, 0, {}]]]}, {"name": "Right_DS_act_3", "class_name": "Activation", "config": {"name": "Right_DS_act_3", "trainable": true, "dtype": "float32", "activation": "elu"}, "inbound_nodes": [[["Right_DS_BN_3", 0, 0, {}]]]}, {"name": "Left_PW_3", "class_name": "Conv2D", "config": {"name": "Left_PW_3", "trainable": true, "dtype": "float32", "filters": 20, "kernel_size": [1, 1], "strides": [1, 1], "padding": "same", "data_format": "channels_last", "dilation_rate": [1, 1], "activation": "linear", "use_bias": false, "kernel_initializer": {"class_name": "VarianceScaling", "config": {"scale": 2.0, "mode": "fan_in", "distribution": "uniform", "seed": null, "dtype": "float32"}}, "bias_initializer": {"class_name": "Zeros", "config": {"dtype": "float32"}}, "kernel_regularizer": null, "bias_regularizer": null, "activity_regularizer": null, "kernel_constraint": null, "bias_constraint": null}, "inbound_nodes": [[["Left_DS_act_3", 0, 0, {}]]]}, {"name": "Right_PW_3", "class_name": "Conv2D", "config": {"name": "Right_PW_3", "trainable": true, "dtype": "float32", "filters": 20, "kernel_size": [1, 1], "strides": [1, 1], "padding": "same", "data_format": "channels_last", "dilation_rate": [1, 1], "activation": "linear", "use_bias": false, "kernel_initializer": {"class_name": "VarianceScaling", "config": {"scale": 2.0, "mode": "fan_in", "distribution": "uniform", "seed": null, "dtype": "float32"}}, "bias_initializer": {"class_name": "Zeros", "config": {"dtype": "float32"}}, "kernel_regularizer": null, "bias_regularizer": null, "activity_regularizer": null, "kernel_constraint": null, "bias_constraint": null}, "inbound_nodes": [[["Right_DS_act_3", 0, 0, {}]]]}, {"name": "Left_PW_BN_3", "class_name": "BatchNormalization", "config": {"name": "Left_PW_BN_3", "trainable": true, "dtype": "float32", "axis": [3], "momentum": 0.99, "epsilon": 0.001, "center": true, "scale": true, "beta_initializer": {"class_name": "Zeros", "config": {"dtype": "float32"}}, "gamma_initializer": {"class_name": "Ones", "config": {"dtype": "float32"}}, "moving_mean_initializer": {"class_name": "Zeros", "config": {"dtype": "float32"}}, "moving_variance_initializer": {"class_name": "Ones", "config": {"dtype": "float32"}}, "beta_regularizer": null, "gamma_regularizer": null, "beta_constraint": null, "gamma_constraint": null}, "inbound_nodes": [[["Left_PW_3", 0, 0, {}]]]}, {"name": "Right_PW_BN_3", "class_name": "BatchNormalization", "config": {"name": "Right_PW_BN_3", "trainable": true, "dtype": "float32", "axis": [3], "momentum": 0.99, "epsilon": 0.001, "center": true, "scale": true, "beta_initializer": {"class_name": "Zeros", "config": {"dtype": "float32"}}, "gamma_initializer": {"class_name": "Ones", "config": {"dtype": "float32"}}, "moving_mean_initializer": {"class_name": "Zeros", "config": {"dtype": "float32"}}, "moving_variance_initializer": {"class_name": "Ones", "config": {"dtype": "float32"}}, "beta_regularizer": null, "gamma_regularizer": null, "beta_constraint": null, "gamma_constraint": null}, "inbound_nodes": [[["Right_PW_3", 0, 0, {}]]]}, {"name": "Left_PW_act_3", "class_name": "Activation", "config": {"name": "Left_PW_act_3", "trainable": true, "dtype": "float32", "activation": "elu"}, "inbound_nodes": [[["Left_PW_BN_3", 0, 0, {}]]]}, {"name": "Right_PW_act_3", "class_name": "Activation", "config": {"name": "Right_PW_act_3", "trainable": true, "dtype": "float32", "activation": "elu"}, "inbound_nodes": [[["Right_PW_BN_3", 0, 0, {}]]]}, {"name": "Left_DS_4", "class_name": "DepthwiseConv2D", "config": {"name": "Left_DS_4", "trainable": true, "dtype": "float32", "kernel_size": [3, 3], "strides": [2, 2], "padding": "same", "data_format": "channels_last", "dilation_rate": [1, 1], "activation": "linear", "use_bias": false, "bias_initializer": {"class_name": "Zeros", "config": {"dtype": "float32"}}, "bias_regularizer": null, "activity_regularizer": null, "bias_constraint": null, "depth_multiplier": 1, "depthwise_initializer": {"class_name": "GlorotUniform", "config": {"seed": null, "dtype": "float32"}}, "depthwise_regularizer": null, "depthwise_constraint": null}, "inbound_nodes": [[["Left_PW_act_3", 0, 0, {}]]]}, {"name": "Right_DS_4", "class_name": "DepthwiseConv2D", "config": {"name": "Right_DS_4", "trainable": true, "dtype": "float32", "kernel_size": [3, 3], "strides": [2, 2], "padding": "same", "data_format": "channels_last", "dilation_rate": [1, 1], "activation": "linear", "use_bias": false, "bias_initializer": {"class_name": "Zeros", "config": {"dtype": "float32"}}, "bias_regularizer": null, "activity_regularizer": null, "bias_constraint": null, "depth_multiplier": 1, "depthwise_initializer": {"class_name": "GlorotUniform", "config": {"seed": null, "dtype": "float32"}}, "depthwise_regularizer": null, "depthwise_constraint": null}, "inbound_nodes": [[["Right_PW_act_3", 0, 0, {}]]]}, {"name": "Left_DS_BN_4", "class_name": "BatchNormalization", "config": {"name": "Left_DS_BN_4", "trainable": true, "dtype": "float32", "axis": [3], "momentum": 0.99, "epsilon": 0.001, "center": true, "scale": true, "beta_initializer": {"class_name": "Zeros", "config": {"dtype": "float32"}}, "gamma_initializer": {"class_name": "Ones", "config": {"dtype": "float32"}}, "moving_mean_initializer": {"class_name": "Zeros", "config": {"dtype": "float32"}}, "moving_variance_initializer": {"class_name": "Ones", "config": {"dtype": "float32"}}, "beta_regularizer": null, "gamma_regularizer": null, "beta_constraint": null, "gamma_constraint": null}, "inbound_nodes": [[["Left_DS_4", 0, 0, {}]]]}, {"name": "Right_DS_BN_4", "class_name": "BatchNormalization", "config": {"name": "Right_DS_BN_4", "trainable": true, "dtype": "float32", "axis": [3], "momentum": 0.99, "epsilon": 0.001, "center": true, "scale": true, "beta_initializer": {"class_name": "Zeros", "config": {"dtype": "float32"}}, "gamma_initializer": {"class_name": "Ones", "config": {"dtype": "float32"}}, "moving_mean_initializer": {"class_name": "Zeros", "config": {"dtype": "float32"}}, "moving_variance_initializer": {"class_name": "Ones", "config": {"dtype": "float32"}}, "beta_regularizer": null, "gamma_regularizer": null, "beta_constraint": null, "gamma_constraint": null}, "inbound_nodes": [[["Right_DS_4", 0, 0, {}]]]}, {"name": "Left_DS_act_4", "class_name": "Activation", "config": {"name": "Left_DS_act_4", "trainable": true, "dtype": "float32", "activation": "elu"}, "inbound_nodes": [[["Left_DS_BN_4", 0, 0, {}]]]}, {"name": "Right_DS_act_4", "class_name": "Activation", "config": {"name": "Right_DS_act_4", "trainable": true, "dtype": "float32", "activation": "elu"}, "inbound_nodes": [[["Right_DS_BN_4", 0, 0, {}]]]}, {"name": "Left_PW_4", "class_name": "Conv2D", "config": {"name": "Left_PW_4", "trainable": true, "dtype": "float32", "filters": 40, "kernel_size": [1, 1], "strides": [1, 1], "padding": "same", "data_format": "channels_last", "dilation_rate": [1, 1], "activation": "linear", "use_bias": false, "kernel_initializer": {"class_name": "VarianceScaling", "config": {"scale": 2.0, "mode": "fan_in", "distribution": "uniform", "seed": null, "dtype": "float32"}}, "bias_initializer": {"class_name": "Zeros", "config": {"dtype": "float32"}}, "kernel_regularizer": null, "bias_regularizer": null, "activity_regularizer": null, "kernel_constraint": null, "bias_constraint": null}, "inbound_nodes": [[["Left_DS_act_4", 0, 0, {}]]]}, {"name": "Right_PW_4", "class_name": "Conv2D", "config": {"name": "Right_PW_4", "trainable": true, "dtype": "float32", "filters": 40, "kernel_size": [1, 1], "strides": [1, 1], "padding": "same", "data_format": "channels_last", "dilation_rate": [1, 1], "activation": "linear", "use_bias": false, "kernel_initializer": {"class_name": "VarianceScaling", "config": {"scale": 2.0, "mode": "fan_in", "distribution": "uniform", "seed": null, "dtype": "float32"}}, "bias_initializer": {"class_name": "Zeros", "config": {"dtype": "float32"}}, "kernel_regularizer": null, "bias_regularizer": null, "activity_regularizer": null, "kernel_constraint": null, "bias_constraint": null}, "inbound_nodes": [[["Right_DS_act_4", 0, 0, {}]]]}, {"name": "Left_PW_BN_4", "class_name": "BatchNormalization", "config": {"name": "Left_PW_BN_4", "trainable": true, "dtype": "float32", "axis": [3], "momentum": 0.99, "epsilon": 0.001, "center": true, "scale": true, "beta_initializer": {"class_name": "Zeros", "config": {"dtype": "float32"}}, "gamma_initializer": {"class_name": "Ones", "config": {"dtype": "float32"}}, "moving_mean_initializer": {"class_name": "Zeros", "config": {"dtype": "float32"}}, "moving_variance_initializer": {"class_name": "Ones", "config": {"dtype": "float32"}}, "beta_regularizer": null, "gamma_regularizer": null, "beta_constraint": null, "gamma_constraint": null}, "inbound_nodes": [[["Left_PW_4", 0, 0, {}]]]}, {"name": "Right_PW_BN_4", "class_name": "BatchNormalization", "config": {"name": "Right_PW_BN_4", "trainable": true, "dtype": "float32", "axis": [3], "momentum": 0.99, "epsilon": 0.001, "center": true, "scale": true, "beta_initializer": {"class_name": "Zeros", "config": {"dtype": "float32"}}, "gamma_initializer": {"class_name": "Ones", "config": {"dtype": "float32"}}, "moving_mean_initializer": {"class_name": "Zeros", "config": {"dtype": "float32"}}, "moving_variance_initializer": {"class_name": "Ones", "config": {"dtype": "float32"}}, "beta_regularizer": null, "gamma_regularizer": null, "beta_constraint": null, "gamma_constraint": null}, "inbound_nodes": [[["Right_PW_4", 0, 0, {}]]]}, {"name": "Left_PW_act_4", "class_name": "Activation", "config": {"name": "Left_PW_act_4", "trainable": true, "dtype": "float32", "activation": "elu"}, "inbound_nodes": [[["Left_PW_BN_4", 0, 0, {}]]]}, {"name": "Right_PW_act_4", "class_name": "Activation", "config": {"name": "Right_PW_act_4", "trainable": true, "dtype": "float32", "activation": "elu"}, "inbound_nodes": [[["Right_PW_BN_4", 0, 0, {}]]]}, {"name": "Left_DS_5", "class_name": "DepthwiseConv2D", "config": {"name": "Left_DS_5", "trainable": true, "dtype": "float32", "kernel_size": [3, 3], "strides": [1, 1], "padding": "same", "data_format": "channels_last", "dilation_rate": [1, 1], "activation": "linear", "use_bias": false, "bias_initializer": {"class_name": "Zeros", "config": {"dtype": "float32"}}, "bias_regularizer": null, "activity_regularizer": null, "bias_constraint": null, "depth_multiplier": 1, "depthwise_initializer": {"class_name": "GlorotUniform", "config": {"seed": null, "dtype": "float32"}}, "depthwise_regularizer": null, "depthwise_constraint": null}, "inbound_nodes": [[["Left_PW_act_4", 0, 0, {}]]]}, {"name": "Right_DS_5", "class_name": "DepthwiseConv2D", "config": {"name": "Right_DS_5", "trainable": true, "dtype": "float32", "kernel_size": [3, 3], "strides": [1, 1], "padding": "same", "data_format": "channels_last", "dilation_rate": [1, 1], "activation": "linear", "use_bias": false, "bias_initializer": {"class_name": "Zeros", "config": {"dtype": "float32"}}, "bias_regularizer": null, "activity_regularizer": null, "bias_constraint": null, "depth_multiplier": 1, "depthwise_initializer": {"class_name": "GlorotUniform", "config": {"seed": null, "dtype": "float32"}}, "depthwise_regularizer": null, "depthwise_constraint": null}, "inbound_nodes": [[["Right_PW_act_4", 0, 0, {}]]]}, {"name": "Left_DS_BN_5", "class_name": "BatchNormalization", "config": {"name": "Left_DS_BN_5", "trainable": true, "dtype": "float32", "axis": [3], "momentum": 0.99, "epsilon": 0.001, "center": true, "scale": true, "beta_initializer": {"class_name": "Zeros", "config": {"dtype": "float32"}}, "gamma_initializer": {"class_name": "Ones", "config": {"dtype": "float32"}}, "moving_mean_initializer": {"class_name": "Zeros", "config": {"dtype": "float32"}}, "moving_variance_initializer": {"class_name": "Ones", "config": {"dtype": "float32"}}, "beta_regularizer": null, "gamma_regularizer": null, "beta_constraint": null, "gamma_constraint": null}, "inbound_nodes": [[["Left_DS_5", 0, 0, {}]]]}, {"name": "Right_DS_BN_5", "class_name": "BatchNormalization", "config": {"name": "Right_DS_BN_5", "trainable": true, "dtype": "float32", "axis": [3], "momentum": 0.99, "epsilon": 0.001, "center": true, "scale": true, "beta_initializer": {"class_name": "Zeros", "config": {"dtype": "float32"}}, "gamma_initializer": {"class_name": "Ones", "config": {"dtype": "float32"}}, "moving_mean_initializer": {"class_name": "Zeros", "config": {"dtype": "float32"}}, "moving_variance_initializer": {"class_name": "Ones", "config": {"dtype": "float32"}}, "beta_regularizer": null, "gamma_regularizer": null, "beta_constraint": null, "gamma_constraint": null}, "inbound_nodes": [[["Right_DS_5", 0, 0, {}]]]}, {"name": "Left_DS_act_5", "class_name": "Activation", "config": {"name": "Left_DS_act_5", "trainable": true, "dtype": "float32", "activation": "elu"}, "inbound_nodes": [[["Left_DS_BN_5", 0, 0, {}]]]}, {"name": "Right_DS_act_5", "class_name": "Activation", "config": {"name": "Right_DS_act_5", "trainable": true, "dtype": "float32", "activation": "elu"}, "inbound_nodes": [[["Right_DS_BN_5", 0, 0, {}]]]}, {"name": "Left_PW_5", "class_name": "Conv2D", "config": {"name": "Left_PW_5", "trainable": true, "dtype": "float32", "filters": 40, "kernel_size": [1, 1], "strides": [1, 1], "padding": "same", "data_format": "channels_last", "dilation_rate": [1, 1], "activation": "linear", "use_bias": false, "kernel_initializer": {"class_name": "VarianceScaling", "config": {"scale": 2.0, "mode": "fan_in", "distribution": "uniform", "seed": null, "dtype": "float32"}}, "bias_initializer": {"class_name": "Zeros", "config": {"dtype": "float32"}}, "kernel_regularizer": null, "bias_regularizer": null, "activity_regularizer": null, "kernel_constraint": null, "bias_constraint": null}, "inbound_nodes": [[["Left_DS_act_5", 0, 0, {}]]]}, {"name": "Right_PW_5", "class_name": "Conv2D", "config": {"name": "Right_PW_5", "trainable": true, "dtype": "float32", "filters": 40, "kernel_size": [1, 1], "strides": [1, 1], "padding": "same", "data_format": "channels_last", "dilation_rate": [1, 1], "activation": "linear", "use_bias": false, "kernel_initializer": {"class_name": "VarianceScaling", "config": {"scale": 2.0, "mode": "fan_in", "distribution": "uniform", "seed": null, "dtype": "float32"}}, "bias_initializer": {"class_name": "Zeros", "config": {"dtype": "float32"}}, "kernel_regularizer": null, "bias_regularizer": null, "activity_regularizer": null, "kernel_constraint": null, "bias_constraint": null}, "inbound_nodes": [[["Right_DS_act_5", 0, 0, {}]]]}, {"name": "Left_PW_BN_5", "class_name": "BatchNormalization", "config": {"name": "Left_PW_BN_5", "trainable": true, "dtype": "float32", "axis": [3], "momentum": 0.99, "epsilon": 0.001, "center": true, "scale": true, "beta_initializer": {"class_name": "Zeros", "config": {"dtype": "float32"}}, "gamma_initializer": {"class_name": "Ones", "config": {"dtype": "float32"}}, "moving_mean_initializer": {"class_name": "Zeros", "config": {"dtype": "float32"}}, "moving_variance_initializer": {"class_name": "Ones", "config": {"dtype": "float32"}}, "beta_regularizer": null, "gamma_regularizer": null, "beta_constraint": null, "gamma_constraint": null}, "inbound_nodes": [[["Left_PW_5", 0, 0, {}]]]}, {"name": "Right_PW_BN_5", "class_name": "BatchNormalization", "config": {"name": "Right_PW_BN_5", "trainable": true, "dtype": "float32", "axis": [3], "momentum": 0.99, "epsilon": 0.001, "center": true, "scale": true, "beta_initializer": {"class_name": "Zeros", "config": {"dtype": "float32"}}, "gamma_initializer": {"class_name": "Ones", "config": {"dtype": "float32"}}, "moving_mean_initializer": {"class_name": "Zeros", "config": {"dtype": "float32"}}, "moving_variance_initializer": {"class_name": "Ones", "config": {"dtype": "float32"}}, "beta_regularizer": null, "gamma_regularizer": null, "beta_constraint": null, "gamma_constraint": null}, "inbound_nodes": [[["Right_PW_5", 0, 0, {}]]]}, {"name": "Left_PW_act_5", "class_name": "Activation", "config": {"name": "Left_PW_act_5", "trainable": true, "dtype": "float32", "activation": "elu"}, "inbound_nodes": [[["Left_PW_BN_5", 0, 0, {}]]]}, {"name": "Right_PW_act_5", "class_name": "Activation", "config": {"name": "Right_PW_act_5", "trainable": true, "dtype": "float32", "activation": "elu"}, "inbound_nodes": [[["Right_PW_BN_5", 0, 0, {}]]]}, {"name": "Left_DS_6", "class_name": "DepthwiseConv2D", "config": {"name": "Left_DS_6", "trainable": true, "dtype": "float32", "kernel_size": [3, 3], "strides": [2, 2], "padding": "same", "data_format": "channels_last", "dilation_rate": [1, 1], "activation": "linear", "use_bias": false, "bias_initializer": {"class_name": "Zeros", "config": {"dtype": "float32"}}, "bias_regularizer": null, "activity_regularizer": null, "bias_constraint": null, "depth_multiplier": 1, "depthwise_initializer": {"class_name": "GlorotUniform", "config": {"seed": null, "dtype": "float32"}}, "depthwise_regularizer": null, "depthwise_constraint": null}, "inbound_nodes": [[["Left_PW_act_5", 0, 0, {}]]]}, {"name": "Right_DS_6", "class_name": "DepthwiseConv2D", "config": {"name": "Right_DS_6", "trainable": true, "dtype": "float32", "kernel_size": [3, 3], "strides": [2, 2], "padding": "same", "data_format": "channels_last", "dilation_rate": [1, 1], "activation": "linear", "use_bias": false, "bias_initializer": {"class_name": "Zeros", "config": {"dtype": "float32"}}, "bias_regularizer": null, "activity_regularizer": null, "bias_constraint": null, "depth_multiplier": 1, "depthwise_initializer": {"class_name": "GlorotUniform", "config": {"seed": null, "dtype": "float32"}}, "depthwise_regularizer": null, "depthwise_constraint": null}, "inbound_nodes": [[["Right_PW_act_5", 0, 0, {}]]]}, {"name": "Left_DS_BN_6", "class_name": "BatchNormalization", "config": {"name": "Left_DS_BN_6", "trainable": true, "dtype": "float32", "axis": [3], "momentum": 0.99, "epsilon": 0.001, "center": true, "scale": true, "beta_initializer": {"class_name": "Zeros", "config": {"dtype": "float32"}}, "gamma_initializer": {"class_name": "Ones", "config": {"dtype": "float32"}}, "moving_mean_initializer": {"class_name": "Zeros", "config": {"dtype": "float32"}}, "moving_variance_initializer": {"class_name": "Ones", "config": {"dtype": "float32"}}, "beta_regularizer": null, "gamma_regularizer": null, "beta_constraint": null, "gamma_constraint": null}, "inbound_nodes": [[["Left_DS_6", 0, 0, {}]]]}, {"name": "Right_DS_BN_6", "class_name": "BatchNormalization", "config": {"name": "Right_DS_BN_6", "trainable": true, "dtype": "float32", "axis": [3], "momentum": 0.99, "epsilon": 0.001, "center": true, "scale": true, "beta_initializer": {"class_name": "Zeros", "config": {"dtype": "float32"}}, "gamma_initializer": {"class_name": "Ones", "config": {"dtype": "float32"}}, "moving_mean_initializer": {"class_name": "Zeros", "config": {"dtype": "float32"}}, "moving_variance_initializer": {"class_name": "Ones", "config": {"dtype": "float32"}}, "beta_regularizer": null, "gamma_regularizer": null, "beta_constraint": null, "gamma_constraint": null}, "inbound_nodes": [[["Right_DS_6", 0, 0, {}]]]}, {"name": "Left_DS_act_6", "class_name": "Activation", "config": {"name": "Left_DS_act_6", "trainable": true, "dtype": "float32", "activation": "elu"}, "inbound_nodes": [[["Left_DS_BN_6", 0, 0, {}]]]}, {"name": "Right_DS_act_6", "class_name": "Activation", "config": {"name": "Right_DS_act_6", "trainable": true, "dtype": "float32", "activation": "elu"}, "inbound_nodes": [[["Right_DS_BN_6", 0, 0, {}]]]}, {"name": "Left_PW_6", "class_name": "Conv2D", "config": {"name": "Left_PW_6", "trainable": true, "dtype": "float32", "filters": 80, "kernel_size": [1, 1], "strides": [1, 1], "padding": "same", "data_format": "channels_last", "dilation_rate": [1, 1], "activation": "linear", "use_bias": false, "kernel_initializer": {"class_name": "VarianceScaling", "config": {"scale": 2.0, "mode": "fan_in", "distribution": "uniform", "seed": null, "dtype": "float32"}}, "bias_initializer": {"class_name": "Zeros", "config": {"dtype": "float32"}}, "kernel_regularizer": null, "bias_regularizer": null, "activity_regularizer": null, "kernel_constraint": null, "bias_constraint": null}, "inbound_nodes": [[["Left_DS_act_6", 0, 0, {}]]]}, {"name": "Right_PW_6", "class_name": "Conv2D", "config": {"name": "Right_PW_6", "trainable": true, "dtype": "float32", "filters": 80, "kernel_size": [1, 1], "strides": [1, 1], "padding": "same", "data_format": "channels_last", "dilation_rate": [1, 1], "activation": "linear", "use_bias": false, "kernel_initializer": {"class_name": "VarianceScaling", "config": {"scale": 2.0, "mode": "fan_in", "distribution": "uniform", "seed": null, "dtype": "float32"}}, "bias_initializer": {"class_name": "Zeros", "config": {"dtype": "float32"}}, "kernel_regularizer": null, "bias_regularizer": null, "activity_regularizer": null, "kernel_constraint": null, "bias_constraint": null}, "inbound_nodes": [[["Right_DS_act_6", 0, 0, {}]]]}, {"name": "Left_PW_BN_6", "class_name": "BatchNormalization", "config": {"name": "Left_PW_BN_6", "trainable": true, "dtype": "float32", "axis": [3], "momentum": 0.99, "epsilon": 0.001, "center": true, "scale": true, "beta_initializer": {"class_name": "Zeros", "config": {"dtype": "float32"}}, "gamma_initializer": {"class_name": "Ones", "config": {"dtype": "float32"}}, "moving_mean_initializer": {"class_name": "Zeros", "config": {"dtype": "float32"}}, "moving_variance_initializer": {"class_name": "Ones", "config": {"dtype": "float32"}}, "beta_regularizer": null, "gamma_regularizer": null, "beta_constraint": null, "gamma_constraint": null}, "inbound_nodes": [[["Left_PW_6", 0, 0, {}]]]}, {"name": "Right_PW_BN_6", "class_name": "BatchNormalization", "config": {"name": "Right_PW_BN_6", "trainable": true, "dtype": "float32", "axis": [3], "momentum": 0.99, "epsilon": 0.001, "center": true, "scale": true, "beta_initializer": {"class_name": "Zeros", "config": {"dtype": "float32"}}, "gamma_initializer": {"class_name": "Ones", "config": {"dtype": "float32"}}, "moving_mean_initializer": {"class_name": "Zeros", "config": {"dtype": "float32"}}, "moving_variance_initializer": {"class_name": "Ones", "config": {"dtype": "float32"}}, "beta_regularizer": null, "gamma_regularizer": null, "beta_constraint": null, "gamma_constraint": null}, "inbound_nodes": [[["Right_PW_6", 0, 0, {}]]]}, {"name": "Left_PW_act_6", "class_name": "Activation", "config": {"name": "Left_PW_act_6", "trainable": true, "dtype": "float32", "activation": "elu"}, "inbound_nodes": [[["Left_PW_BN_6", 0, 0, {}]]]}, {"name": "Right_PW_act_6", "class_name": "Activation", "config": {"name": "Right_PW_act_6", "trainable": true, "dtype": "float32", "activation": "elu"}, "inbound_nodes": [[["Right_PW_BN_6", 0, 0, {}]]]}, {"name": "Left_DS_7", "class_name": "DepthwiseConv2D", "config": {"name": "Left_DS_7", "trainable": true, "dtype": "float32", "kernel_size": [3, 3], "strides": [1, 1], "padding": "same", "data_format": "channels_last", "dilation_rate": [1, 1], "activation": "linear", "use_bias": false, "bias_initializer": {"class_name": "Zeros", "config": {"dtype": "float32"}}, "bias_regularizer": null, "activity_regularizer": null, "bias_constraint": null, "depth_multiplier": 1, "depthwise_initializer": {"class_name": "GlorotUniform", "config": {"seed": null, "dtype": "float32"}}, "depthwise_regularizer": null, "depthwise_constraint": null}, "inbound_nodes": [[["Left_PW_act_6", 0, 0, {}]]]}, {"name": "Right_DS_7", "class_name": "DepthwiseConv2D", "config": {"name": "Right_DS_7", "trainable": true, "dtype": "float32", "kernel_size": [3, 3], "strides": [1, 1], "padding": "same", "data_format": "channels_last", "dilation_rate": [1, 1], "activation": "linear", "use_bias": false, "bias_initializer": {"class_name": "Zeros", "config": {"dtype": "float32"}}, "bias_regularizer": null, "activity_regularizer": null, "bias_constraint": null, "depth_multiplier": 1, "depthwise_initializer": {"class_name": "GlorotUniform", "config": {"seed": null, "dtype": "float32"}}, "depthwise_regularizer": null, "depthwise_constraint": null}, "inbound_nodes": [[["Right_PW_act_6", 0, 0, {}]]]}, {"name": "Left_DS_BN_7", "class_name": "BatchNormalization", "config": {"name": "Left_DS_BN_7", "trainable": true, "dtype": "float32", "axis": [3], "momentum": 0.99, "epsilon": 0.001, "center": true, "scale": true, "beta_initializer": {"class_name": "Zeros", "config": {"dtype": "float32"}}, "gamma_initializer": {"class_name": "Ones", "config": {"dtype": "float32"}}, "moving_mean_initializer": {"class_name": "Zeros", "config": {"dtype": "float32"}}, "moving_variance_initializer": {"class_name": "Ones", "config": {"dtype": "float32"}}, "beta_regularizer": null, "gamma_regularizer": null, "beta_constraint": null, "gamma_constraint": null}, "inbound_nodes": [[["Left_DS_7", 0, 0, {}]]]}, {"name": "Right_DS_BN_7", "class_name": "BatchNormalization", "config": {"name": "Right_DS_BN_7", "trainable": true, "dtype": "float32", "axis": [3], "momentum": 0.99, "epsilon": 0.001, "center": true, "scale": true, "beta_initializer": {"class_name": "Zeros", "config": {"dtype": "float32"}}, "gamma_initializer": {"class_name": "Ones", "config": {"dtype": "float32"}}, "moving_mean_initializer": {"class_name": "Zeros", "config": {"dtype": "float32"}}, "moving_variance_initializer": {"class_name": "Ones", "config": {"dtype": "float32"}}, "beta_regularizer": null, "gamma_regularizer": null, "beta_constraint": null, "gamma_constraint": null}, "inbound_nodes": [[["Right_DS_7", 0, 0, {}]]]}, {"name": "Left_DS_act_7", "class_name": "Activation", "config": {"name": "Left_DS_act_7", "trainable": true, "dtype": "float32", "activation": "elu"}, "inbound_nodes": [[["Left_DS_BN_7", 0, 0, {}]]]}, {"name": "Right_DS_act_7", "class_name": "Activation", "config": {"name": "Right_DS_act_7", "trainable": true, "dtype": "float32", "activation": "elu"}, "inbound_nodes": [[["Right_DS_BN_7", 0, 0, {}]]]}, {"name": "Left_PW_7", "class_name": "Conv2D", "config": {"name": "Left_PW_7", "trainable": true, "dtype": "float32", "filters": 80, "kernel_size": [1, 1], "strides": [1, 1], "padding": "same", "data_format": "channels_last", "dilation_rate": [1, 1], "activation": "linear", "use_bias": false, "kernel_initializer": {"class_name": "VarianceScaling", "config": {"scale": 2.0, "mode": "fan_in", "distribution": "uniform", "seed": null, "dtype": "float32"}}, "bias_initializer": {"class_name": "Zeros", "config": {"dtype": "float32"}}, "kernel_regularizer": null, "bias_regularizer": null, "activity_regularizer": null, "kernel_constraint": null, "bias_constraint": null}, "inbound_nodes": [[["Left_DS_act_7", 0, 0, {}]]]}, {"name": "Right_PW_7", "class_name": "Conv2D", "config": {"name": "Right_PW_7", "trainable": true, "dtype": "float32", "filters": 80, "kernel_size": [1, 1], "strides": [1, 1], "padding": "same", "data_format": "channels_last", "dilation_rate": [1, 1], "activation": "linear", "use_bias": false, "kernel_initializer": {"class_name": "VarianceScaling", "config": {"scale": 2.0, "mode": "fan_in", "distribution": "uniform", "seed": null, "dtype": "float32"}}, "bias_initializer": {"class_name": "Zeros", "config": {"dtype": "float32"}}, "kernel_regularizer": null, "bias_regularizer": null, "activity_regularizer": null, "kernel_constraint": null, "bias_constraint": null}, "inbound_nodes": [[["Right_DS_act_7", 0, 0, {}]]]}, {"name": "Left_PW_BN_7", "class_name": "BatchNormalization", "config": {"name": "Left_PW_BN_7", "trainable": true, "dtype": "float32", "axis": [3], "momentum": 0.99, "epsilon": 0.001, "center": true, "scale": true, "beta_initializer": {"class_name": "Zeros", "config": {"dtype": "float32"}}, "gamma_initializer": {"class_name": "Ones", "config": {"dtype": "float32"}}, "moving_mean_initializer": {"class_name": "Zeros", "config": {"dtype": "float32"}}, "moving_variance_initializer": {"class_name": "Ones", "config": {"dtype": "float32"}}, "beta_regularizer": null, "gamma_regularizer": null, "beta_constraint": null, "gamma_constraint": null}, "inbound_nodes": [[["Left_PW_7", 0, 0, {}]]]}, {"name": "Right_PW_BN_7", "class_name": "BatchNormalization", "config": {"name": "Right_PW_BN_7", "trainable": true, "dtype": "float32", "axis": [3], "momentum": 0.99, "epsilon": 0.001, "center": true, "scale": true, "beta_initializer": {"class_name": "Zeros", "config": {"dtype": "float32"}}, "gamma_initializer": {"class_name": "Ones", "config": {"dtype": "float32"}}, "moving_mean_initializer": {"class_name": "Zeros", "config": {"dtype": "float32"}}, "moving_variance_initializer": {"class_name": "Ones", "config": {"dtype": "float32"}}, "beta_regularizer": null, "gamma_regularizer": null, "beta_constraint": null, "gamma_constraint": null}, "inbound_nodes": [[["Right_PW_7", 0, 0, {}]]]}, {"name": "Left_PW_act_7", "class_name": "Activation", "config": {"name": "Left_PW_act_7", "trainable": true, "dtype": "float32", "activation": "elu"}, "inbound_nodes": [[["Left_PW_BN_7", 0, 0, {}]]]}, {"name": "Right_PW_act_7", "class_name": "Activation", "config": {"name": "Right_PW_act_7", "trainable": true, "dtype": "float32", "activation": "elu"}, "inbound_nodes": [[["Right_PW_BN_7", 0, 0, {}]]]}, {"name": "Left_DS_8", "class_name": "DepthwiseConv2D", "config": {"name": "Left_DS_8", "trainable": true, "dtype": "float32", "kernel_size": [3, 3], "strides": [2, 2], "padding": "same", "data_format": "channels_last", "dilation_rate": [1, 1], "activation": "linear", "use_bias": false, "bias_initializer": {"class_name": "Zeros", "config": {"dtype": "float32"}}, "bias_regularizer": null, "activity_regularizer": null, "bias_constraint": null, "depth_multiplier": 1, "depthwise_initializer": {"class_name": "GlorotUniform", "config": {"seed": null, "dtype": "float32"}}, "depthwise_regularizer": null, "depthwise_constraint": null}, "inbound_nodes": [[["Left_PW_act_7", 0, 0, {}]]]}, {"name": "Right_DS_8", "class_name": "DepthwiseConv2D", "config": {"name": "Right_DS_8", "trainable": true, "dtype": "float32", "kernel_size": [3, 3], "strides": [2, 2], "padding": "same", "data_format": "channels_last", "dilation_rate": [1, 1], "activation": "linear", "use_bias": false, "bias_initializer": {"class_name": "Zeros", "config": {"dtype": "float32"}}, "bias_regularizer": null, "activity_regularizer": null, "bias_constraint": null, "depth_multiplier": 1, "depthwise_initializer": {"class_name": "GlorotUniform", "config": {"seed": null, "dtype": "float32"}}, "depthwise_regularizer": null, "depthwise_constraint": null}, "inbound_nodes": [[["Right_PW_act_7", 0, 0, {}]]]}, {"name": "Left_DS_BN_8", "class_name": "BatchNormalization", "config": {"name": "Left_DS_BN_8", "trainable": true, "dtype": "float32", "axis": [3], "momentum": 0.99, "epsilon": 0.001, "center": true, "scale": true, "beta_initializer": {"class_name": "Zeros", "config": {"dtype": "float32"}}, "gamma_initializer": {"class_name": "Ones", "config": {"dtype": "float32"}}, "moving_mean_initializer": {"class_name": "Zeros", "config": {"dtype": "float32"}}, "moving_variance_initializer": {"class_name": "Ones", "config": {"dtype": "float32"}}, "beta_regularizer": null, "gamma_regularizer": null, "beta_constraint": null, "gamma_constraint": null}, "inbound_nodes": [[["Left_DS_8", 0, 0, {}]]]}, {"name": "Right_DS_BN_8", "class_name": "BatchNormalization", "config": {"name": "Right_DS_BN_8", "trainable": true, "dtype": "float32", "axis": [3], "momentum": 0.99, "epsilon": 0.001, "center": true, "scale": true, "beta_initializer": {"class_name": "Zeros", "config": {"dtype": "float32"}}, "gamma_initializer": {"class_name": "Ones", "config": {"dtype": "float32"}}, "moving_mean_initializer": {"class_name": "Zeros", "config": {"dtype": "float32"}}, "moving_variance_initializer": {"class_name": "Ones", "config": {"dtype": "float32"}}, "beta_regularizer": null, "gamma_regularizer": null, "beta_constraint": null, "gamma_constraint": null}, "inbound_nodes": [[["Right_DS_8", 0, 0, {}]]]}, {"name": "Left_DS_act_8", "class_name": "Activation", "config": {"name": "Left_DS_act_8", "trainable": true, "dtype": "float32", "activation": "elu"}, "inbound_nodes": [[["Left_DS_BN_8", 0, 0, {}]]]}, {"name": "Right_DS_act_8", "class_name": "Activation", "config": {"name": "Right_DS_act_8", "trainable": true, "dtype": "float32", "activation": "elu"}, "inbound_nodes": [[["Right_DS_BN_8", 0, 0, {}]]]}, {"name": "Left_PW_8", "class_name": "Conv2D", "config": {"name": "Left_PW_8", "trainable": true, "dtype": "float32", "filters": 120, "kernel_size": [1, 1], "strides": [1, 1], "padding": "same", "data_format": "channels_last", "dilation_rate": [1, 1], "activation": "linear", "use_bias": false, "kernel_initializer": {"class_name": "VarianceScaling", "config": {"scale": 2.0, "mode": "fan_in", "distribution": "uniform", "seed": null, "dtype": "float32"}}, "bias_initializer": {"class_name": "Zeros", "config": {"dtype": "float32"}}, "kernel_regularizer": null, "bias_regularizer": null, "activity_regularizer": null, "kernel_constraint": null, "bias_constraint": null}, "inbound_nodes": [[["Left_DS_act_8", 0, 0, {}]]]}, {"name": "Right_PW_8", "class_name": "Conv2D", "config": {"name": "Right_PW_8", "trainable": true, "dtype": "float32", "filters": 120, "kernel_size": [1, 1], "strides": [1, 1], "padding": "same", "data_format": "channels_last", "dilation_rate": [1, 1], "activation": "linear", "use_bias": false, "kernel_initializer": {"class_name": "VarianceScaling", "config": {"scale": 2.0, "mode": "fan_in", "distribution": "uniform", "seed": null, "dtype": "float32"}}, "bias_initializer": {"class_name": "Zeros", "config": {"dtype": "float32"}}, "kernel_regularizer": null, "bias_regularizer": null, "activity_regularizer": null, "kernel_constraint": null, "bias_constraint": null}, "inbound_nodes": [[["Right_DS_act_8", 0, 0, {}]]]}, {"name": "Left_PW_BN_8", "class_name": "BatchNormalization", "config": {"name": "Left_PW_BN_8", "trainable": true, "dtype": "float32", "axis": [3], "momentum": 0.99, "epsilon": 0.001, "center": true, "scale": true, "beta_initializer": {"class_name": "Zeros", "config": {"dtype": "float32"}}, "gamma_initializer": {"class_name": "Ones", "config": {"dtype": "float32"}}, "moving_mean_initializer": {"class_name": "Zeros", "config": {"dtype": "float32"}}, "moving_variance_initializer": {"class_name": "Ones", "config": {"dtype": "float32"}}, "beta_regularizer": null, "gamma_regularizer": null, "beta_constraint": null, "gamma_constraint": null}, "inbound_nodes": [[["Left_PW_8", 0, 0, {}]]]}, {"name": "Right_PW_BN_8", "class_name": "BatchNormalization", "config": {"name": "Right_PW_BN_8", "trainable": true, "dtype": "float32", "axis": [3], "momentum": 0.99, "epsilon": 0.001, "center": true, "scale": true, "beta_initializer": {"class_name": "Zeros", "config": {"dtype": "float32"}}, "gamma_initializer": {"class_name": "Ones", "config": {"dtype": "float32"}}, "moving_mean_initializer": {"class_name": "Zeros", "config": {"dtype": "float32"}}, "moving_variance_initializer": {"class_name": "Ones", "config": {"dtype": "float32"}}, "beta_regularizer": null, "gamma_regularizer": null, "beta_constraint": null, "gamma_constraint": null}, "inbound_nodes": [[["Right_PW_8", 0, 0, {}]]]}, {"name": "Left_PW_act_8", "class_name": "Activation", "config": {"name": "Left_PW_act_8", "trainable": true, "dtype": "float32", "activation": "elu"}, "inbound_nodes": [[["Left_PW_BN_8", 0, 0, {}]]]}, {"name": "Right_PW_act_8", "class_name": "Activation", "config": {"name": "Right_PW_act_8", "trainable": true, "dtype": "float32", "activation": "elu"}, "inbound_nodes": [[["Right_PW_BN_8", 0, 0, {}]]]}, {"name": "Left_DS_9", "class_name": "DepthwiseConv2D", "config": {"name": "Left_DS_9", "trainable": true, "dtype": "float32", "kernel_size": [3, 3], "strides": [1, 1], "padding": "same", "data_format": "channels_last", "dilation_rate": [1, 1], "activation": "linear", "use_bias": false, "bias_initializer": {"class_name": "Zeros", "config": {"dtype": "float32"}}, "bias_regularizer": null, "activity_regularizer": null, "bias_constraint": null, "depth_multiplier": 1, "depthwise_initializer": {"class_name": "GlorotUniform", "config": {"seed": null, "dtype": "float32"}}, "depthwise_regularizer": null, "depthwise_constraint": null}, "inbound_nodes": [[["Left_PW_act_8", 0, 0, {}]]]}, {"name": "Right_DS_9", "class_name": "DepthwiseConv2D", "config": {"name": "Right_DS_9", "trainable": true, "dtype": "float32", "kernel_size": [3, 3], "strides": [1, 1], "padding": "same", "data_format": "channels_last", "dilation_rate": [1, 1], "activation": "linear", "use_bias": false, "bias_initializer": {"class_name": "Zeros", "config": {"dtype": "float32"}}, "bias_regularizer": null, "activity_regularizer": null, "bias_constraint": null, "depth_multiplier": 1, "depthwise_initializer": {"class_name": "GlorotUniform", "config": {"seed": null, "dtype": "float32"}}, "depthwise_regularizer": null, "depthwise_constraint": null}, "inbound_nodes": [[["Right_PW_act_8", 0, 0, {}]]]}, {"name": "Left_DS_BN_9", "class_name": "BatchNormalization", "config": {"name": "Left_DS_BN_9", "trainable": true, "dtype": "float32", "axis": [3], "momentum": 0.99, "epsilon": 0.001, "center": true, "scale": true, "beta_initializer": {"class_name": "Zeros", "config": {"dtype": "float32"}}, "gamma_initializer": {"class_name": "Ones", "config": {"dtype": "float32"}}, "moving_mean_initializer": {"class_name": "Zeros", "config": {"dtype": "float32"}}, "moving_variance_initializer": {"class_name": "Ones", "config": {"dtype": "float32"}}, "beta_regularizer": null, "gamma_regularizer": null, "beta_constraint": null, "gamma_constraint": null}, "inbound_nodes": [[["Left_DS_9", 0, 0, {}]]]}, {"name": "Right_DS_BN_9", "class_name": "BatchNormalization", "config": {"name": "Right_DS_BN_9", "trainable": true, "dtype": "float32", "axis": [3], "momentum": 0.99, "epsilon": 0.001, "center": true, "scale": true, "beta_initializer": {"class_name": "Zeros", "config": {"dtype": "float32"}}, "gamma_initializer": {"class_name": "Ones", "config": {"dtype": "float32"}}, "moving_mean_initializer": {"class_name": "Zeros", "config": {"dtype": "float32"}}, "moving_variance_initializer": {"class_name": "Ones", "config": {"dtype": "float32"}}, "beta_regularizer": null, "gamma_regularizer": null, "beta_constraint": null, "gamma_constraint": null}, "inbound_nodes": [[["Right_DS_9", 0, 0, {}]]]}, {"name": "Left_DS_act_9", "class_name": "Activation", "config": {"name": "Left_DS_act_9", "trainable": true, "dtype": "float32", "activation": "elu"}, "inbound_nodes": [[["Left_DS_BN_9", 0, 0, {}]]]}, {"name": "Right_DS_act_9", "class_name": "Activation", "config": {"name": "Right_DS_act_9", "trainable": true, "dtype": "float32", "activation": "elu"}, "inbound_nodes": [[["Right_DS_BN_9", 0, 0, {}]]]}, {"name": "Left_PW_9", "class_name": "Conv2D", "config": {"name": "Left_PW_9", "trainable": true, "dtype": "float32", "filters": 120, "kernel_size": [1, 1], "strides": [1, 1], "padding": "same", "data_format": "channels_last", "dilation_rate": [1, 1], "activation": "linear", "use_bias": false, "kernel_initializer": {"class_name": "VarianceScaling", "config": {"scale": 2.0, "mode": "fan_in", "distribution": "uniform", "seed": null, "dtype": "float32"}}, "bias_initializer": {"class_name": "Zeros", "config": {"dtype": "float32"}}, "kernel_regularizer": null, "bias_regularizer": null, "activity_regularizer": null, "kernel_constraint": null, "bias_constraint": null}, "inbound_nodes": [[["Left_DS_act_9", 0, 0, {}]]]}, {"name": "Right_PW_9", "class_name": "Conv2D", "config": {"name": "Right_PW_9", "trainable": true, "dtype": "float32", "filters": 120, "kernel_size": [1, 1], "strides": [1, 1], "padding": "same", "data_format": "channels_last", "dilation_rate": [1, 1], "activation": "linear", "use_bias": false, "kernel_initializer": {"class_name": "VarianceScaling", "config": {"scale": 2.0, "mode": "fan_in", "distribution": "uniform", "seed": null, "dtype": "float32"}}, "bias_initializer": {"class_name": "Zeros", "config": {"dtype": "float32"}}, "kernel_regularizer": null, "bias_regularizer": null, "activity_regularizer": null, "kernel_constraint": null, "bias_constraint": null}, "inbound_nodes": [[["Right_DS_act_9", 0, 0, {}]]]}, {"name": "Left_PW_BN_9", "class_name": "BatchNormalization", "config": {"name": "Left_PW_BN_9", "trainable": true, "dtype": "float32", "axis": [3], "momentum": 0.99, "epsilon": 0.001, "center": true, "scale": true, "beta_initializer": {"class_name": "Zeros", "config": {"dtype": "float32"}}, "gamma_initializer": {"class_name": "Ones", "config": {"dtype": "float32"}}, "moving_mean_initializer": {"class_name": "Zeros", "config": {"dtype": "float32"}}, "moving_variance_initializer": {"class_name": "Ones", "config": {"dtype": "float32"}}, "beta_regularizer": null, "gamma_regularizer": null, "beta_constraint": null, "gamma_constraint": null}, "inbound_nodes": [[["Left_PW_9", 0, 0, {}]]]}, {"name": "Right_PW_BN_9", "class_name": "BatchNormalization", "config": {"name": "Right_PW_BN_9", "trainable": true, "dtype": "float32", "axis": [3], "momentum": 0.99, "epsilon": 0.001, "center": true, "scale": true, "beta_initializer": {"class_name": "Zeros", "config": {"dtype": "float32"}}, "gamma_initializer": {"class_name": "Ones", "config": {"dtype": "float32"}}, "moving_mean_initializer": {"class_name": "Zeros", "config": {"dtype": "float32"}}, "moving_variance_initializer": {"class_name": "Ones", "config": {"dtype": "float32"}}, "beta_regularizer": null, "gamma_regularizer": null, "beta_constraint": null, "gamma_constraint": null}, "inbound_nodes": [[["Right_PW_9", 0, 0, {}]]]}, {"name": "Left_PW_act_9", "class_name": "Activation", "config": {"name": "Left_PW_act_9", "trainable": true, "dtype": "float32", "activation": "elu"}, "inbound_nodes": [[["Left_PW_BN_9", 0, 0, {}]]]}, {"name": "Right_PW_act_9", "class_name": "Activation", "config": {"name": "Right_PW_act_9", "trainable": true, "dtype": "float32", "activation": "elu"}, "inbound_nodes": [[["Right_PW_BN_9", 0, 0, {}]]]}, {"name": "Left_DS_10", "class_name": "DepthwiseConv2D", "config": {"name": "Left_DS_10", "trainable": true, "dtype": "float32", "kernel_size": [3, 3], "strides": [2, 2], "padding": "same", "data_format": "channels_last", "dilation_rate": [1, 1], "activation": "linear", "use_bias": false, "bias_initializer": {"class_name": "Zeros", "config": {"dtype": "float32"}}, "bias_regularizer": null, "activity_regularizer": null, "bias_constraint": null, "depth_multiplier": 1, "depthwise_initializer": {"class_name": "GlorotUniform", "config": {"seed": null, "dtype": "float32"}}, "depthwise_regularizer": null, "depthwise_constraint": null}, "inbound_nodes": [[["Left_PW_act_9", 0, 0, {}]]]}, {"name": "Right_DS_10", "class_name": "DepthwiseConv2D", "config": {"name": "Right_DS_10", "trainable": true, "dtype": "float32", "kernel_size": [3, 3], "strides": [2, 2], "padding": "same", "data_format": "channels_last", "dilation_rate": [1, 1], "activation": "linear", "use_bias": false, "bias_initializer": {"class_name": "Zeros", "config": {"dtype": "float32"}}, "bias_regularizer": null, "activity_regularizer": null, "bias_constraint": null, "depth_multiplier": 1, "depthwise_initializer": {"class_name": "GlorotUniform", "config": {"seed": null, "dtype": "float32"}}, "depthwise_regularizer": null, "depthwise_constraint": null}, "inbound_nodes": [[["Right_PW_act_9", 0, 0, {}]]]}, {"name": "Left_DS_BN_10", "class_name": "BatchNormalization", "config": {"name": "Left_DS_BN_10", "trainable": true, "dtype": "float32", "axis": [3], "momentum": 0.99, "epsilon": 0.001, "center": true, "scale": true, "beta_initializer": {"class_name": "Zeros", "config": {"dtype": "float32"}}, "gamma_initializer": {"class_name": "Ones", "config": {"dtype": "float32"}}, "moving_mean_initializer": {"class_name": "Zeros", "config": {"dtype": "float32"}}, "moving_variance_initializer": {"class_name": "Ones", "config": {"dtype": "float32"}}, "beta_regularizer": null, "gamma_regularizer": null, "beta_constraint": null, "gamma_constraint": null}, "inbound_nodes": [[["Left_DS_10", 0, 0, {}]]]}, {"name": "Right_DS_BN_10", "class_name": "BatchNormalization", "config": {"name": "Right_DS_BN_10", "trainable": true, "dtype": "float32", "axis": [3], "momentum": 0.99, "epsilon": 0.001, "center": true, "scale": true, "beta_initializer": {"class_name": "Zeros", "config": {"dtype": "float32"}}, "gamma_initializer": {"class_name": "Ones", "config": {"dtype": "float32"}}, "moving_mean_initializer": {"class_name": "Zeros", "config": {"dtype": "float32"}}, "moving_variance_initializer": {"class_name": "Ones", "config": {"dtype": "float32"}}, "beta_regularizer": null, "gamma_regularizer": null, "beta_constraint": null, "gamma_constraint": null}, "inbound_nodes": [[["Right_DS_10", 0, 0, {}]]]}, {"name": "Left_DS_act_10", "class_name": "Activation", "config": {"name": "Left_DS_act_10", "trainable": true, "dtype": "float32", "activation": "elu"}, "inbound_nodes": [[["Left_DS_BN_10", 0, 0, {}]]]}, {"name": "Right_DS_act_10", "class_name": "Activation", "config": {"name": "Right_DS_act_10", "trainable": true, "dtype": "float32", "activation": "elu"}, "inbound_nodes": [[["Right_DS_BN_10", 0, 0, {}]]]}, {"name": "Left_PW_10", "class_name": "Conv2D", "config": {"name": "Left_PW_10", "trainable": true, "dtype": "float32", "filters": 160, "kernel_size": [1, 1], "strides": [1, 1], "padding": "same", "data_format": "channels_last", "dilation_rate": [1, 1], "activation": "linear", "use_bias": false, "kernel_initializer": {"class_name": "VarianceScaling", "config": {"scale": 2.0, "mode": "fan_in", "distribution": "uniform", "seed": null, "dtype": "float32"}}, "bias_initializer": {"class_name": "Zeros", "config": {"dtype": "float32"}}, "kernel_regularizer": null, "bias_regularizer": null, "activity_regularizer": null, "kernel_constraint": null, "bias_constraint": null}, "inbound_nodes": [[["Left_DS_act_10", 0, 0, {}]]]}, {"name": "Right_PW_10", "class_name": "Conv2D", "config": {"name": "Right_PW_10", "trainable": true, "dtype": "float32", "filters": 160, "kernel_size": [1, 1], "strides": [1, 1], "padding": "same", "data_format": "channels_last", "dilation_rate": [1, 1], "activation": "linear", "use_bias": false, "kernel_initializer": {"class_name": "VarianceScaling", "config": {"scale": 2.0, "mode": "fan_in", "distribution": "uniform", "seed": null, "dtype": "float32"}}, "bias_initializer": {"class_name": "Zeros", "config": {"dtype": "float32"}}, "kernel_regularizer": null, "bias_regularizer": null, "activity_regularizer": null, "kernel_constraint": null, "bias_constraint": null}, "inbound_nodes": [[["Right_DS_act_10", 0, 0, {}]]]}, {"name": "Left_PW_BN_10", "class_name": "BatchNormalization", "config": {"name": "Left_PW_BN_10", "trainable": true, "dtype": "float32", "axis": [3], "momentum": 0.99, "epsilon": 0.001, "center": true, "scale": true, "beta_initializer": {"class_name": "Zeros", "config": {"dtype": "float32"}}, "gamma_initializer": {"class_name": "Ones", "config": {"dtype": "float32"}}, "moving_mean_initializer": {"class_name": "Zeros", "config": {"dtype": "float32"}}, "moving_variance_initializer": {"class_name": "Ones", "config": {"dtype": "float32"}}, "beta_regularizer": null, "gamma_regularizer": null, "beta_constraint": null, "gamma_constraint": null}, "inbound_nodes": [[["Left_PW_10", 0, 0, {}]]]}, {"name": "Right_PW_BN_10", "class_name": "BatchNormalization", "config": {"name": "Right_PW_BN_10", "trainable": true, "dtype": "float32", "axis": [3], "momentum": 0.99, "epsilon": 0.001, "center": true, "scale": true, "beta_initializer": {"class_name": "Zeros", "config": {"dtype": "float32"}}, "gamma_initializer": {"class_name": "Ones", "config": {"dtype": "float32"}}, "moving_mean_initializer": {"class_name": "Zeros", "config": {"dtype": "float32"}}, "moving_variance_initializer": {"class_name": "Ones", "config": {"dtype": "float32"}}, "beta_regularizer": null, "gamma_regularizer": null, "beta_constraint": null, "gamma_constraint": null}, "inbound_nodes": [[["Right_PW_10", 0, 0, {}]]]}, {"name": "Left_PW_act_10", "class_name": "Activation", "config": {"name": "Left_PW_act_10", "trainable": true, "dtype": "float32", "activation": "elu"}, "inbound_nodes": [[["Left_PW_BN_10", 0, 0, {}]]]}, {"name": "Right_PW_act_10", "class_name": "Activation", "config": {"name": "Right_PW_act_10", "trainable": true, "dtype": "float32", "activation": "elu"}, "inbound_nodes": [[["Right_PW_BN_10", 0, 0, {}]]]}, {"name": "Left_DS_11", "class_name": "DepthwiseConv2D", "config": {"name": "Left_DS_11", "trainable": true, "dtype": "float32", "kernel_size": [3, 3], "strides": [1, 1], "padding": "same", "data_format": "channels_last", "dilation_rate": [1, 1], "activation": "linear", "use_bias": false, "bias_initializer": {"class_name": "Zeros", "config": {"dtype": "float32"}}, "bias_regularizer": null, "activity_regularizer": null, "bias_constraint": null, "depth_multiplier": 1, "depthwise_initializer": {"class_name": "GlorotUniform", "config": {"seed": null, "dtype": "float32"}}, "depthwise_regularizer": null, "depthwise_constraint": null}, "inbound_nodes": [[["Left_PW_act_10", 0, 0, {}]]]}, {"name": "Right_DS_11", "class_name": "DepthwiseConv2D", "config": {"name": "Right_DS_11", "trainable": true, "dtype": "float32", "kernel_size": [3, 3], "strides": [1, 1], "padding": "same", "data_format": "channels_last", "dilation_rate": [1, 1], "activation": "linear", "use_bias": false, "bias_initializer": {"class_name": "Zeros", "config": {"dtype": "float32"}}, "bias_regularizer": null, "activity_regularizer": null, "bias_constraint": null, "depth_multiplier": 1, "depthwise_initializer": {"class_name": "GlorotUniform", "config": {"seed": null, "dtype": "float32"}}, "depthwise_regularizer": null, "depthwise_constraint": null}, "inbound_nodes": [[["Right_PW_act_10", 0, 0, {}]]]}, {"name": "Left_DS_BN_11", "class_name": "BatchNormalization", "config": {"name": "Left_DS_BN_11", "trainable": true, "dtype": "float32", "axis": [3], "momentum": 0.99, "epsilon": 0.001, "center": true, "scale": true, "beta_initializer": {"class_name": "Zeros", "config": {"dtype": "float32"}}, "gamma_initializer": {"class_name": "Ones", "config": {"dtype": "float32"}}, "moving_mean_initializer": {"class_name": "Zeros", "config": {"dtype": "float32"}}, "moving_variance_initializer": {"class_name": "Ones", "config": {"dtype": "float32"}}, "beta_regularizer": null, "gamma_regularizer": null, "beta_constraint": null, "gamma_constraint": null}, "inbound_nodes": [[["Left_DS_11", 0, 0, {}]]]}, {"name": "Right_DS_BN_11", "class_name": "BatchNormalization", "config": {"name": "Right_DS_BN_11", "trainable": true, "dtype": "float32", "axis": [3], "momentum": 0.99, "epsilon": 0.001, "center": true, "scale": true, "beta_initializer": {"class_name": "Zeros", "config": {"dtype": "float32"}}, "gamma_initializer": {"class_name": "Ones", "config": {"dtype": "float32"}}, "moving_mean_initializer": {"class_name": "Zeros", "config": {"dtype": "float32"}}, "moving_variance_initializer": {"class_name": "Ones", "config": {"dtype": "float32"}}, "beta_regularizer": null, "gamma_regularizer": null, "beta_constraint": null, "gamma_constraint": null}, "inbound_nodes": [[["Right_DS_11", 0, 0, {}]]]}, {"name": "Left_DS_act_11", "class_name": "Activation", "config": {"name": "Left_DS_act_11", "trainable": true, "dtype": "float32", "activation": "elu"}, "inbound_nodes": [[["Left_DS_BN_11", 0, 0, {}]]]}, {"name": "Right_DS_act_11", "class_name": "Activation", "config": {"name": "Right_DS_act_11", "trainable": true, "dtype": "float32", "activation": "elu"}, "inbound_nodes": [[["Right_DS_BN_11", 0, 0, {}]]]}, {"name": "Left_PW_11", "class_name": "Conv2D", "config": {"name": "Left_PW_11", "trainable": true, "dtype": "float32", "filters": 160, "kernel_size": [1, 1], "strides": [1, 1], "padding": "same", "data_format": "channels_last", "dilation_rate": [1, 1], "activation": "linear", "use_bias": false, "kernel_initializer": {"class_name": "VarianceScaling", "config": {"scale": 2.0, "mode": "fan_in", "distribution": "uniform", "seed": null, "dtype": "float32"}}, "bias_initializer": {"class_name": "Zeros", "config": {"dtype": "float32"}}, "kernel_regularizer": null, "bias_regularizer": null, "activity_regularizer": null, "kernel_constraint": null, "bias_constraint": null}, "inbound_nodes": [[["Left_DS_act_11", 0, 0, {}]]]}, {"name": "Right_PW_11", "class_name": "Conv2D", "config": {"name": "Right_PW_11", "trainable": true, "dtype": "float32", "filters": 160, "kernel_size": [1, 1], "strides": [1, 1], "padding": "same", "data_format": "channels_last", "dilation_rate": [1, 1], "activation": "linear", "use_bias": false, "kernel_initializer": {"class_name": "VarianceScaling", "config": {"scale": 2.0, "mode": "fan_in", "distribution": "uniform", "seed": null, "dtype": "float32"}}, "bias_initializer": {"class_name": "Zeros", "config": {"dtype": "float32"}}, "kernel_regularizer": null, "bias_regularizer": null, "activity_regularizer": null, "kernel_constraint": null, "bias_constraint": null}, "inbound_nodes": [[["Right_DS_act_11", 0, 0, {}]]]}, {"name": "Left_PW_BN_11", "class_name": "BatchNormalization", "config": {"name": "Left_PW_BN_11", "trainable": true, "dtype": "float32", "axis": [3], "momentum": 0.99, "epsilon": 0.001, "center": true, "scale": true, "beta_initializer": {"class_name": "Zeros", "config": {"dtype": "float32"}}, "gamma_initializer": {"class_name": "Ones", "config": {"dtype": "float32"}}, "moving_mean_initializer": {"class_name": "Zeros", "config": {"dtype": "float32"}}, "moving_variance_initializer": {"class_name": "Ones", "config": {"dtype": "float32"}}, "beta_regularizer": null, "gamma_regularizer": null, "beta_constraint": null, "gamma_constraint": null}, "inbound_nodes": [[["Left_PW_11", 0, 0, {}]]]}, {"name": "Right_PW_BN_11", "class_name": "BatchNormalization", "config": {"name": "Right_PW_BN_11", "trainable": true, "dtype": "float32", "axis": [3], "momentum": 0.99, "epsilon": 0.001, "center": true, "scale": true, "beta_initializer": {"class_name": "Zeros", "config": {"dtype": "float32"}}, "gamma_initializer": {"class_name": "Ones", "config": {"dtype": "float32"}}, "moving_mean_initializer": {"class_name": "Zeros", "config": {"dtype": "float32"}}, "moving_variance_initializer": {"class_name": "Ones", "config": {"dtype": "float32"}}, "beta_regularizer": null, "gamma_regularizer": null, "beta_constraint": null, "gamma_constraint": null}, "inbound_nodes": [[["Right_PW_11", 0, 0, {}]]]}, {"name": "Left_PW_act_11", "class_name": "Activation", "config": {"name": "Left_PW_act_11", "trainable": true, "dtype": "float32", "activation": "elu"}, "inbound_nodes": [[["Left_PW_BN_11", 0, 0, {}]]]}, {"name": "Right_PW_act_11", "class_name": "Activation", "config": {"name": "Right_PW_act_11", "trainable": true, "dtype": "float32", "activation": "elu"}, "inbound_nodes": [[["Right_PW_BN_11", 0, 0, {}]]]}, {"name": "Left_global_avg_pool", "class_name": "AveragePooling2D", "config": {"name": "Left_global_avg_pool", "trainable": true, "dtype": "float32", "pool_size": [2, 2], "padding": "valid", "strides": [2, 2], "data_format": "channels_last"}, "inbound_nodes": [[["Left_PW_act_11", 0, 0, {}]]]}, {"name": "Right_global_avg_pool", "class_name": "AveragePooling2D", "config": {"name": "Right_global_avg_pool", "trainable": true, "dtype": "float32", "pool_size": [2, 2], "padding": "valid", "strides": [2, 2], "data_format": "channels_last"}, "inbound_nodes": [[["Right_PW_act_11", 0, 0, {}]]]}, {"name": "concatenate", "class_name": "Concatenate", "config": {"name": "concatenate", "trainable": true, "dtype": "float32", "axis": -1}, "inbound_nodes": [[["Left_global_avg_pool", 0, 0, {}], ["Right_global_avg_pool", 0, 0, {}]]]}, {"name": "flatten", "class_name": "Flatten", "config": {"name": "flatten", "trainable": true, "dtype": "float32", "data_format": "channels_last"}, "inbound_nodes": [[["concatenate", 0, 0, {}]]]}, {"name": "Merge_dense_1", "class_name": "Dense", "config": {"name": "Merge_dense_1", "trainable": true, "dtype": "float32", "units": 320, "activation": "linear", "use_bias": true, "kernel_initializer": {"class_name": "GlorotUniform", "config": {"seed": null, "dtype": "float32"}}, "bias_initializer": {"class_name": "Zeros", "config": {"dtype": "float32"}}, "kernel_regularizer": null, "bias_regularizer": null, "activity_regularizer": null, "kernel_constraint": null, "bias_constraint": null}, "inbound_nodes": [[["flatten", 0, 0, {}]]]}, {"name": "Merge_BN_1", "class_name": "BatchNormalization", "config": {"name": "Merge_BN_1", "trainable": true, "dtype": "float32", "axis": [1], "momentum": 0.99, "epsilon": 0.001, "center": true, "scale": true, "beta_initializer": {"class_name": "Zeros", "config": {"dtype": "float32"}}, "gamma_initializer": {"class_name": "Ones", "config": {"dtype": "float32"}}, "moving_mean_initializer": {"class_name": "Zeros", "config": {"dtype": "float32"}}, "moving_variance_initializer": {"class_name": "Ones", "config": {"dtype": "float32"}}, "beta_regularizer": null, "gamma_regularizer": null, "beta_constraint": null, "gamma_constraint": null}, "inbound_nodes": [[["Merge_dense_1", 0, 0, {}]]]}, {"name": "Merge_act_1", "class_name": "Activation", "config": {"name": "Merge_act_1", "trainable": true, "dtype": "float32", "activation": "elu"}, "inbound_nodes": [[["Merge_BN_1", 0, 0, {}]]]}, {"name": "Merge_drop_1", "class_name": "Dropout", "config": {"name": "Merge_drop_1", "trainable": true, "dtype": "float32", "rate": 0.3, "noise_shape": null, "seed": null}, "inbound_nodes": [[["Merge_act_1", 0, 0, {}]]]}, {"name": "Merge_dense_out", "class_name": "Dense", "config": {"name": "Merge_dense_out", "trainable": true, "dtype": "float32", "units": 40, "activation": "linear", "use_bias": true, "kernel_initializer": {"class_name": "GlorotUniform", "config": {"seed": null, "dtype": "float32"}}, "bias_initializer": {"class_name": "Zeros", "config": {"dtype": "float32"}}, "kernel_regularizer": null, "bias_regularizer": null, "activity_regularizer": null, "kernel_constraint": null, "bias_constraint": null}, "inbound_nodes": [[["Merge_drop_1", 0, 0, {}]]]}, {"name": "Merge_BN_out", "class_name": "BatchNormalization", "config": {"name": "Merge_BN_out", "trainable": true, "dtype": "float32", "axis": [1], "momentum": 0.99, "epsilon": 0.001, "center": true, "scale": true, "beta_initializer": {"class_name": "Zeros", "config": {"dtype": "float32"}}, "gamma_initializer": {"class_name": "Ones", "config": {"dtype": "float32"}}, "moving_mean_initializer": {"class_name": "Zeros", "config": {"dtype": "float32"}}, "moving_variance_initializer": {"class_name": "Ones", "config": {"dtype": "float32"}}, "beta_regularizer": null, "gamma_regularizer": null, "beta_constraint": null, "gamma_constraint": null}, "inbound_nodes": [[["Merge_dense_out", 0, 0, {}]]]}, {"name": "Merge_act_out", "class_name": "Activation", "config": {"name": "Merge_act_out", "trainable": true, "dtype": "float32", "activation": "elu"}, "inbound_nodes": [[["Merge_BN_out", 0, 0, {}]]]}, {"name": "OUT", "class_name": "Dense", "config": {"name": "OUT", "trainable": true, "dtype": "float32", "units": 2, "activation": "linear", "use_bias": true, "kernel_initializer": {"class_name": "GlorotUniform", "config": {"seed": null, "dtype": "float32"}}, "bias_initializer": {"class_name": "Zeros", "config": {"dtype": "float32"}}, "kernel_regularizer": null, "bias_regularizer": null, "activity_regularizer": null, "kernel_constraint": null, "bias_constraint": null}, "inbound_nodes": [[["Merge_act_out", 0, 0, {}]]]}], "input_layers": [["left_eye_input", 0, 0], ["right_eye_input", 0, 0]], "output_layers": [["OUT", 0, 0]]}, "keras_version": "2.2.4-tf", "backend": "tensorflow"}